…
nd(tumbles,3)[::2])\nax.set(xlabel=r\"Actual tumbling rate, $\\alpha_a$\", ylabel=r\"Predicted tumbling rate, $\\alpha_p$\")\nsns.despine()\n\n\n\n\nCode\nimport tensorflow as tf\nimport os\n\nos.chdir(\"/project/persistent-exclusion-process/\")\n\n\n\n\nCode\nmodel = tf.keras.models.load_model(\"models/blue9392.keras\")\nmodel.summary()\n\n\nModel: \"sequential_7\"\n_________________________________________________________________\n Layer (type)                Output Shape              Param #   \n=================================================================\n conv2d_21 (Conv2D)          (None, 128, 128, 3)       30        \n                                                                 \n max_pooling2d_21 (MaxPooli  (None, 64, 64, 3)         0         \n ng2D)                                                           \n                                                                 \n re_lu_21 (ReLU)             (None, 64, 64, 3)         0         \n                                                                 \n batch_normalization_21 (Ba  (None, 64, 64, 3)         12        \n tchNormalization)                                               \n                                                                 \n conv2d_22 (Conv2D)          (None, 64, 64, 4)         304       \n                                                                 \n max_pooling2d_22 (MaxPooli  (None, 32, 32, 4)         0         \n ng2D)                                                           \n                                                                 \n re_lu_22 (ReLU)             (None, 32, 32, 4)         0         \n                                                                 \n batch_normalization_22 (Ba  (None, 32, 32, 4)         16        \n tchNormalization)                                               \n                                                                 \n conv2d_23 (Conv2D)          (None, 32, 32, 6)         606       \n                                                                 \n max_pooling2d_23 (MaxPooli  (None, 16, 16, 6)         0         \n ng2D)                                                           \n                                                                 \n re_lu_23 (ReLU)             (None, 16, 16, 6)         0         \n                                                                 \n batch_normalization_23 (Ba  (None, 16, 16, 6)         24        \n tchNormalization)                                               \n                                                                 \n global_average_pooling2d_7  (None, 6)                 0         \n  (GlobalAveragePooling2D)                                       \n                                                                 \n dropout_14 (Dropout)        (None, 6)                 0         \n                                                                 \n dense_21 (Dense)            (None, 128)               896       \n                                                                 \n dropout_15 (Dropout)        (None, 128)               0         \n                                                                 \n dense_22 (Dense)            (None, 3)                 387       \n                                                                 \n flatten_7 (Flatten)         (None, 3)                 0         \n                                                                 \n dense_23 (Dense)            (None, 1)                 4         \n                                                                 \n=================================================================\nTotal params: 2279 (8.90 KB)\nTrainable params: 2253 (8.80 KB)\nNon-trainable params: 26 (104.00 Byte)\n_________________________________________________________________\n\n\n2024-03-27 12:50:35.079060: I tensorflow/core/common_runtime/gpu/gpu_device.cc:1639] Created device /job:localhost/replica:0/task:0/device:GPU:0 with 4454 MB memory:  -&gt; device: 0, name: NVIDIA GeForce RTX 2060, pci bus id: 0000:07:00.0, compute capability: 7.5"
…
